python/models/model.pt (torch, 136023 bytes, 6 tensors)

layer1.weight f4 [128, 124]
0.24684286 0.19075163 -0.008429046 0.0681775 -0.03216546 0.06311443 0.03838469 0.012099005
0.016602186 -0.030842401 0.054783892 0.055767935 -0.055993322 -0.0032537524 0.07325041 0.0529029
0.036984798 -0.02725579 -0.07243964 0.016340828 -0.063354895 0.01646273 -0.020444792 -0.054949477
-0.0032630495 -0.034771807 -0.04771984 0.084333494 -0.008018534 -0.028210009 0.109161876 -0.032353822
-0.12635165 -0.012641226 0.01967507 0.0419079 0.093408786 -0.013324116 0.09791453 0.043725114
0.1266032 0.09188509 0.05896212 0.1585946 -0.005794743 -0.08058206 -0.12816434 0.065059684
0.11112851 0.1279233 0.07631636 0.013253339 -0.003033195 0.1398331 0.052050296 -0.047611203
0.021751301 0.044603813 -0.055351783 0.020371335 0.08800892 0.04715082 -0.095273755 0.03062315
0.12605838 0.06596748 0.0222949 0.07121149 0.021041017 0.012845058 0.0419583 -0.011695027
0.14789768 -0.017083194 0.08921524 0.15507954 0.0045305965 0.106099464 -0.11228934 0.067762904
-0.008155229 0.05350466 0.06647581 0.0037445 0.09429799 0.05146346 -0.006365267 0.09195003
0.076341875 0.013655964 0.117625795 -0.0050576543 0.029707398 0.14420536 0.13141169 0.052868094
0.08410745 -0.032755043 -0.1101878 -0.03907352 0.03759229 0.13218139 -0.093187384 4.8269067e-05
-0.05704153 -0.011596493 0.07003567 -0.040804096 -0.04348171 -0.028389713 -0.046454977 -0.0145916045
-0.01591897 -0.02677094 -0.045558296 -0.045545008 0.07495312 -0.04300483 -0.09897604 -0.05354349
-0.037848476 -0.10432442 0.09965885 0.037694562 -0.14704344 -0.18757457 0.028989479 -0.012359026
-0.0075097163 0.018553998 -0.0532282 0.07249232 0.017495625 -0.11785468 -0.08160085 -0.09289741
-0.0075813094 -0.032552395 -0.076374196 -0.09537155 -0.039045982 0.10104753 -0.015872058 0.037243497
-0.008116831 -0.006747806 0.06300466 0.06930696 -0.03923242 0.060057025 -0.0018363466 -0.09930533
0.060878534 -0.015772892 0.069686346 -0.056746062 -0.08860795 -0.09291027 -0.07479909 -0.0620233
-0.08849928 0.07087085 0.056985777 0.023308804 -0.016849063 0.008770681 -0.019668598 0.033453505
-0.087851144 -0.037951443 0.06670348 0.030796507 0.04930835 0.0013106146 -0.06897268 0.03169192
-0.048062555 -0.006320379 -0.039902665 -0.040412374 0.103736006 0.040062282 0.0052217534 -0.07492118
-0.0087647755 -0.09167639 0.09215374 0.012938803 0.08904387 -0.06270936 -0.00014635467 0.114058875
-0.037527062 0.09316462 0.013743017 -0.00012035574 0.06332524 -0.025390085 0.019082876 -0.03810129
0.034719396 0.09455711 -0.032658495 -0.029028809 0.05755654 0.0113431625 -0.014065235 0.07031721
-0.056332983 0.0555299 0.030242987 -0.055617884 0.045518886 0.021555094 0.0046412847 0.03564602
-0.031882398 -0.044637054 -0.0041592293 0.087382905 -0.053864643 -0.050849862 -0.023571718 0.02896809
-0.0006489475 -0.008218457 -0.0531018 -0.023205282 0.048720572 -0.0783502 0.06198707 -0.035104103
0.021720184 -0.1092516 0.039764605 -0.029176584 0.013140895 0.048307497 0.056919195 -0.00067240186
-0.04451635 -0.0008511312 0.009848809 -0.07020286 -0.10946378 0.0386793 -0.059415933 -0.047086973
-0.17605203 -0.07806641 0.054204535 -0.039867397 0.015105104 -0.046640582 -0.05651758 0.06738559
00000000: 60c4 7c3e 6554 433e fb19 0abc a5a0 8b3d
00000010: eebf 03bd 2342 813d 4439 1d3d e83a 463c
00000020: 4f01 883c 34a9 fcbc 1365 603d eb6c 643d
00000030: 4159 65bd e83c 55bb 5004 963d b6b0 583d
00000040: 5f7d 173d 8947 dfbc 3c5b 94bd 33dd 853c
00000050: 36c0 81bd d9dc 863c d67b a7bc b412 61bd
00000060: e3d8 55bb e26c 0ebd e175 43bd 0ab7 ac3d
00000070: 2b60 03bc ad18 e7bc 4390 df3d 7185 04bd
00000080: 5462 01be 251d 4fbc 9d2d a13c 9ea7 2b3d
00000090: 1b4d bf3d 654d 5abc 6a87 c83d 1b19 333d
000000a0: 45a4 013e 402e bc3d 4482 713d 9f66 223e
000000b0: d4e1 bdbb 3508 a5bd 833d 03be 033e 853d
000000c0: 5897 e33d 53fe 023e c04b 9c3d 8824 593c
000000d0: 91c8 46bb 6830 0f3e b132 553d f703 43bd
000000e0: c92f b23c 7db2 363d 8db8 62bd c9e1 a63c
000000f0: 053e b43d 3821 413d e31e c3bd 66dd fa3c
00000100: 7315 013e f519 873d cba3 b63c 54d7 913d
00000110: 365e ac3c 1474 523c 77dc 2b3d 809c 3fbc
00000120: 7d72 173e 0ef2 8bbc 7bb6 b63d 2ccd 1e3e
00000130: 6675 943b ad4a d93d f4f7 e5bd 47c7 8a3d
00000140: 829d 05bc b427 5b3d 7824 883d 4966 753b
00000150: 4e1f c13d 59cb 523d bb93 d0bb 4c50 bc3d
00000160: 2159 9c3d 44bd 5f3c cbe5 f03d aeba a5bb
00000170: ee5c f33c 92aa 133e c990 063e 378c 583d
00000180: 8740 ac3d 272a 06bd 24aa e1bd 8e0b 20bd
00000190: 60fa 193d 8f5a 073e 07d9 bebd 8474 4a38
000001a0: 61a4 69bd 38ff 3dbc dd6e 8f3d 3222 27bd
000001b0: e119 32bd 8b91 e8bc 9347 3ebd a011 6fbc
000001c0: 8068 82bc bb4e dbbc 569b 3abd 678d 3abd
000001d0: 0581 993d d525 30bd f3b3 cabd 6b50 5bbd
000001e0: 0107 1bbd 0ba8 d5bd f019 cc3d 9d65 1a3d
000001f0: 8e92 16be 8c13 40be 587b ed3c 837d 4abc
00000200: 1114 f6bb 8efe 973c d005 5abd da76 943d
00000210: fc52 8f3c cb5d f1bd 591e a7bd ff40 bebd
00000220: a26c f8bb a955 05bd 136a 9cbd 2952 c3bd
00000230: aeee 1fbd 02f2 ce3d 1e06 82bc a38c 183d
00000240: 75fc 04bc b31c ddbb 9608 813d cff0 8d3d
00000250: 2db2 20bd 5bfe 753d 91b1 f0ba 9860 cbbd
00000260: c55b 793d 2736 81bc b7b7 8e3d 8f6e 68bd
00000270: 1678 b5bd bd47 bebd 4430 99bd 250c 7ebd
00000280: 1c3f b5bd bc24 913d eb69 693d 1bf2 be3c
00000290: 0c07 8abc e7b2 0f3c 0a20 a1bc 8b06 093d
000002a0: 4deb b3bd f972 1bbd d69b 883d f548 fc3c
000002b0: 8df7 493d eec8 ab3a 8c41 8dbd 63cf 013d
000002c0: 3edd 44bd 2f1b cfbb fa70 23bd 7287 25bd
000002d0: 8b73 d43d 5918 243d 3e1b ab3b 4770 99bd
000002e0: 229a 0fbc d5c0 bbbd 1abb bc3d 46fd 533c
000002f0: a25c b63d c46d 80bd c876 19b9 b397 e93d
00000300: fab5 19bd 18cd be3d 642a 613c 7f67 fcb8
00000310: aab0 813d defe cfbc b153 9c3c 1910 1cbd
00000320: ed35 0e3d 28a7 c13d eac4 05bd d3cd edbc
00000330: 68c0 6b3d acd8 393c df71 66bc 7802 903d
00000340: 6abd 66bd 5273 633d 24c0 f73c 94cf 63bd
00000350: 0372 3a3d 4f94 b03c eb15 983b 9001 123d
00000360: 1e97 02bd 58d5 36bd 254a 88bb cff5 b23d
00000370: 2ca1 5cbd f247 50bd 7a19 c1bc 7d4e ed3c
00000380: 211e 2aba b5a6 06bc 4681 59bd 0119 bebc
00000390: 398f 473d 1276 a0bd 27e6 7d3d 52c9 0fbd
000003a0: 87ee b13c 4ebf dfbd 36e0 223d bb03 efbc
000003b0: e94c 573c 15de 453d 1a24 693d 2044 30ba
000003c0: c756 36bd 731e 5fba e65c 213c 84c6 8fbd
000003d0: 8c2e e0bd 306e 1e3d 1f5e 73bd 45de 40bd
000003e0: fc46 34be 48e1 9fbd 9305 5e3d ff4b 23bd
000003f0: 667b 773c 320a 3fbd fa7e 67bd 7501 8a3d

layer1.bias f4 [128]
0.17957364 -0.18848756 -0.14713024 0.0025872777 0.13377085 0.08761176 0.02738916 0.08914727
0.27833992 0.20966426 0.110195585 0.037954863 -0.03195254 0.1736632 0.25431684 -0.13593242
0.20484573 0.10056876 0.10567342 0.10732723 -0.06256003 0.0422246 0.07296675 0.1380325
0.16041224 0.14236665 0.032717228 -0.15241206 -0.1283361 0.15020582 0.1397613 0.09491125
0.086543426 0.013539164 0.08634773 0.2579956 0.20157743 -0.15384218 0.06612454 -0.017613867
-0.20245185 0.17885101 0.0956261 0.13133818 0.09041466 -0.014678682 0.13124198 0.11726992
0.011618274 -0.02108255 0.06366881 0.09618122 0.07932436 0.10497577 0.0984442 0.13561706
-0.0018689268 0.19292119 -0.02799995 0.17971207 0.13487159 0.15721124 0.12518007 -0.07083217
-0.076920554 0.07163657 -0.004715216 0.03290995 -0.08084102 -0.002477618 -0.17795293 0.099466726
0.054401506 0.08785456 0.147701 0.06792025 0.15744802 0.13688633 0.25379565 0.1372308
-0.2230781 -0.06764949 0.010367497 0.08804543 0.10817353 -0.105356395 -0.210457 0.1946481
-0.15318593 -0.19092399 -0.088782586 0.07166605 0.09533722 0.05484611 0.030331248 0.16639437
-0.02262041 0.040451113 0.09763109 -0.060187567 0.08800469 0.010944002 -0.0041876286 -0.17829752
-0.10195829 0.037366692 0.0944223 -0.045429293 0.047419637 0.13132249 0.13405801 0.11475509
-0.012848317 0.078398764 0.052191306 0.163235 -0.12104848 -0.019708553 0.11798004 0.14415826
0.06437524 -0.028632497 0.1511876 -0.033105705 0.20312993 0.009965287 -0.13083468 0.023051549
00000000: 27e2 373e e202 41be 4fa9 16be 518f 293b
00000010: 3afb 083e cb6d b33d 3b5f e03c d892 b63d
00000020: 9282 8e3e 3ab2 563e 39ae e13d 8f76 1b3d
00000030: abe0 02bd c4d4 313e d135 823e de31 0bbe
00000040: 14c3 513e fef6 cd3d 4e6b d83d 61ce db3d
00000050: 791f 80bd b4f3 2c3d 976f 953d 6458 0d3e
00000060: 1b43 243e 90c8 113e 8002 063d e811 1cbe
00000070: 8a6a 03be 8ecf 193e 961d 0f3e d460 c23d
00000080: ae3d b13d 5fd3 5d3c 14d7 b03d 0018 843e
00000090: 506a 4e3e ce88 1dbe 4e6c 873d f54a 90bc
000000a0: 8a4f 4fbe b824 373e 9ed7 c33d 847d 063e
000000b0: 522b b93d db7e 70bc 4c64 063e 362b f03d
000000c0: 935a 3e3c 50b5 acbc cb64 823d a9fa c43d
000000d0: cf74 a23d 89fd d63d 1d9d c93d 33df 0a3e
000000e0: c7f6 f4ba 228d 453e 2760 e5bc 7106 383e
000000f0: c71b 0a3e fcfb 203e 342f 003e 7510 91bd
00000100: 8688 9dbd 32b6 923d 1982 9abb 95cc 063d
00000110: fa8f a5bd 885f 22bb 4b39 36be 36b5 cb3d
00000120: 1dd4 5e3d 17ed b33d ee3e 173e c619 8b3d
00000130: 0e3a 213e ee2b 0c3e 81f1 813e 3b86 0c3e
00000140: 966e 64be d18b 8abd 6fdc 293c 2a51 b43d
00000150: 158a dd3d 18c5 d7bd 0a82 57be d551 473e
00000160: c6dc 1cbe 9481 43be a5d3 b5bd a6c5 923d
00000170: 2940 c33d 51a6 603d 3d79 f83c 4963 2a3e
00000180: 704e b9bc 11b0 253d cff2 c73d 3d87 76bd
00000190: ce3b b43d 794e 333c 6038 89bb a093 36be
000001a0: 82cf d0bd d10d 193d 7b60 c13d 1114 3abd
000001b0: 183b 423d 6779 063e 8146 093e b704 eb3d
000001c0: bf81 52bc 888f a03d 8dc6 553d 1327 273e
000001d0: 44e8 f7bd d573 a1bc 859f f13d 399e 133e
000001e0: 2ad7 833d b38e eabc ecd0 1a3e d999 07bd
000001f0: 4b01 503e 7145 233c 87f9 05be 9ad6 bc3c

layer2.weight f4 [128, 128]
-0.07903909 -0.009034213 -0.055824313 0.016263131 0.036359355 -0.08990871 -0.017080415 -0.017896278
-0.05987478 0.05453106 0.020494662 0.06571067 0.02717961 0.016289419 0.03902618 -0.026841097
-0.09125649 -0.067063786 -0.03866641 0.011325694 -0.03002407 -0.022601651 0.057046384 -0.059698477
0.022131324 0.07130106 -0.036705825 0.053715713 0.01456587 -0.008847339 -0.05426091 0.037546072
0.0433306 -0.024925012 0.060682222 0.063863076 -0.03804665 -0.038570274 -0.08571849 0.037771292
-0.033557527 0.03892303 -0.08601724 0.0012539619 0.05158146 -0.019704662 -0.08260232 0.005655894
-0.07854239 0.012679638 -0.01535605 -0.04615192 -0.002444649 0.034361232 0.03911903 -0.10360685
0.045088492 -0.07973057 -0.061769083 0.073983654 0.002750068 0.0546906 0.02504536 -0.010423068
0.075146355 -0.0039686095 -0.040486336 -0.036128864 0.011941333 0.02230741 -0.06351633 0.0380491
0.016531747 -0.037308153 -0.0702806 -0.055773757 -0.073075674 0.05248179 -0.014343946 -0.007070926
-0.07811452 -0.001963286 -0.08798743 0.015787195 0.017487276 -0.08610312 0.064133 -0.03647377
-0.034691487 0.08022782 0.0068954835 -0.030139057 -0.03906496 -0.005842507 0.052850284 0.07853167
-0.0050340574 -0.06715187 0.06274338 0.042118948 -0.004249774 0.027115151 -0.037733614 0.07719163
-0.045338035 -0.08500894 -0.024967125 -0.04493392 -0.059211116 -0.054882124 0.0034200505 -0.026972294
0.02491696 -0.0019210613 -0.083796255 0.05975857 -0.088888496 0.06787465 -0.083878055 -0.021099743
-0.06861277 0.07535184 -0.10204797 -0.00782268 0.07529003 -0.06980398 -0.021016084 -0.044341512
-0.030969756 0.061227113 0.019170042 -0.017408255 -0.041578617 -0.015112807 0.0046296427 -0.025945878
0.009482319 0.06840676 0.03000521 -0.005083038 -0.044856593 -0.06943445 0.021057513 -0.07043969
-0.02132024 -0.03923394 0.103587225 -0.08247214 -0.083450735 0.07590502 0.02193711 0.004634774
-0.09334221 0.03319886 -0.01721685 -0.06359823 -0.031415757 -0.047267538 -0.06998063 -0.008296202
-0.028235622 0.022643594 -0.021469044 -0.009227407 -0.0818205 -0.0031104975 0.025087595 0.035067607
0.05283693 0.0618555 -0.051505715 0.08568736 -0.06601961 0.105572894 -0.11182634 -0.056003023
0.05464185 -0.061804265 -0.08767345 -0.03800751 0.047372088 0.03327014 -0.052538183 0.11307665
-0.08933038 -0.039412364 -0.087065116 -0.06682129 -0.10076666 -0.038356233 0.018740132 0.0625365
0.0280054 0.004499495 -0.11106234 0.02592923 -0.0543422 -0.0771195 -0.061381187 -0.14019072
0.07258005 0.048668332 0.060668502 0.038291834 -0.04616473 0.085776925 -0.06501029 0.078245
0.034499064 0.034156367 -0.00603203 0.0368655 0.05665474 0.062533975 -0.009319415 0.005781228
0.07600195 -0.0209533 0.023025109 -0.04302182 0.05838648 -0.012024559 -0.037614428 0.0778563
0.011325555 0.074763685 -0.015983095 -0.04466145 0.066187166 0.045464166 -0.09223011 -0.07902891
-0.076267295 0.055293825 0.013310013 0.046850428 0.109083585 -0.0038749543 0.096736886 0.03015556
0.013962747 0.10160646 0.018921077 0.008383919 0.0690376 -0.15513338 0.0816075 -0.07104593
-0.041892096 -0.0063042142 -0.014696765 0.060164426 0.081000865 0.08294704 0.06108542 -0.058761973
00000000: 3fdf a1bd 3c04 14bc 09a8 64bd 423a 853c
00000010: 8ced 143d 0f22 b8bd 3aec 8bbc 379b 92bc
00000020: 423f 75bd f65b 5f3d 6ce4 a73c 5193 863d
00000030: c6a7 de3c 6371 853c ead9 1f3d dce1 dbbc
00000040: afe4 babd bd58 89bd ab60 1ebd 678f 393c
00000050: 0af5 f5bc 1927 b9bc 78a9 693d 6486 74bd
00000060: c04c b53c 4a06 923d d958 16bd 0205 5c3d
00000070: b0a5 6e3c 6ef4 10bc b040 5ebd e9c9 193d
00000080: 6d7b 313d 8a2f ccbc ec8d 783d a5ca 823d
00000090: ced6 1bbd ddfb 1dbd 2d8d afbd 12b6 1a3d
000000a0: 9e73 09bd c16d 1f3d cf29 b0bd fb5b a43a
000000b0: 1547 533d ac6b a1bc 682b a9bd 1455 b93b
000000c0: d5da a0bd 42be 4f3c f197 7bbc cc09 3dbd
000000d0: 6836 20bb 5dbe 0c3d 473b 203d d42f d4bd
000000e0: b6ae 383d c849 a3bd 9401 7dbd be84 973d
000000f0: 7c3a 343b 4003 603d ed2b cd3c 84c5 2abc
00000100: 55e6 993d 1c0b 82bb 00d5 25bd dcfb 13bd
00000110: 95a5 433c 08be b63c da14 82bd 60d9 1b3d
00000120: 966d 873c 6fd0 18bd 46ef 8fbd 0673 64bd
00000130: b3a8 95bd 25f7 563d df02 6bbc 3ab3 e7bb
00000140: 81fa 9fbd 79aa 00bb c132 b4bd 2654 813c
00000150: 7a41 8f3c d556 b0bd 2a58 833d 8565 15bd
00000160: a918 0ebd 7c4e a43d 82f3 e13b 2fe6 f6bc
00000170: 9402 20bd 8072 bfbb 8a79 583d 36d5 a03d
00000180: bcf4 a4bb eb86 89bd 9a7f 803d eb84 2c3d
00000190: b041 8bbb 9820 de3c 908e 1abd a516 9e3d
000001a0: 60b4 39bd 2b19 aebd db87 ccbc a10c 38bd
000001b0: 5b87 72bd 14cc 60bd ed22 603b 00f5 dcbc
000001c0: a71e cc3c 1fcc fbba 5f9d abbd 67c5 743d
000001d0: 2c0b b6bd dd01 8b3d 42c8 abbd 5ed9 acbc
000001e0: da84 8cbd 1152 9a3d 87fe d0bd b32a 00bc
000001f0: a931 9a3d 64f5 8ebd ec29 acbc 729f 35bd
00000200: 49b4 fdbc 48c9 7a3d 7e0a 9d3c c29b 8ebc
00000210: 574e 2abd b59b 77bc 42b4 973b 738c d4bc
00000220: ba5b 1b3c d818 8c3d 7ccd f53c 9d8f a6bb
00000230: 8cbb 37bd a633 8ebd ce80 ac3c af42 90bd
00000240: c9a7 aebc c5b3 20bd 8a25 d43d 27e7 a8bd
00000250: 38e8 aabd 1774 9b3d 74b5 b33c 4ddf 973b
00000260: 332a bfbd 87fb 073d 5a0a 8dbc ca3f 82bd
00000270: cfad 00bd 9b9b 41bd 0152 8fbd cbec 07bc
00000280: 644e e7bc 0f7f b93c d9df afbc 8d2e 17bc
00000290: 8291 a7bd 7dd9 4bbb 8084 cd3c 0da3 0f3d
000002a0: 896b 583d 315c 7d3d a8f7 52bd db7c af3d
000002b0: 4a35 87bd 9a36 d83d 3505 e5bd 6d63 65bd
000002c0: 22d0 5f3d 7826 7dbd 238e b3bd c3ad 1bbd
000002d0: 3c09 423d 4546 083d 4732 57bd bb94 e73d
000002e0: d9f2 b6bd dc6e 21bd 324f b2bd 9ad9 88bd
000002f0: c05e cebd 6d1b 1dbd e884 993c 2313 803d
00000300: 956b e53c 8070 933b a774 e3bd 8969 d43c
00000310: ed95 5ebd d4f0 9dbd d76a 7bbd 288e 0fbe
00000320: d9a4 943d 7258 473d 897f 783d e6d7 1c3d
00000330: 3a17 3dbd d0ab af3d 1d24 85bd ea3e a03d
00000340: e44e 0d3d 8ce7 0b3d 56a8 c5bb 4700 173d
00000350: cd0e 683d d011 803d 76b0 18bc 7570 bd3b
00000360: e9a6 9b3d 41a6 abbc 279f bc3c a637 30bd
00000370: a926 6f3d a802 45bc 9611 1abd 2073 9f3d
00000380: d28e 393c b41d 993d fbee 82bc edee 36bd
00000390: 238d 873d a238 3a3d 24e3 bcbd e9d9 a1bd
000003a0: 0732 9cbd c77b 623d 3e12 5a3c 3ce6 3f3d
000003b0: 3767 df3d f2f2 7dbb fd1d c63d cb08 f73c
000003c0: 01c4 643c 0c17 d03d 6000 9b3c b45c 093c
000003d0: 9663 8d3d 49db 1ebe d521 a73d 8780 91bd
000003e0: 0c97 2bbd 9593 cebb b3ca 70bc f96e 763d
000003f0: c8e3 a53d 23e0 a93d b534 7a3d 65b0 70bd

layer2.bias f4 [128]
0.038586225 -0.059399165 0.07784784 0.08307529 -0.0011549289 -0.04456423 0.098403536 -0.00771538
0.048871085 0.036459457 0.1668895 0.0984508 0.05413066 0.17476639 0.16281545 -0.016610585
0.052564252 0.043056693 0.05421042 -0.0050224345 0.07750808 -0.0257987 -0.022918882 0.09967166
0.008616151 0.12140367 -0.026282243 0.07945958 0.11827127 0.05491291 0.036018133 0.022372311
0.05054718 0.027887737 0.10755609 0.059031405 -0.025456255 0.005627865 0.075791724 0.1752024
0.17981407 0.0006064763 -0.0074350825 0.10361638 -0.1105184 0.07371272 0.075716175 -0.0015693039
-0.0791683 0.0789156 0.015320808 0.03715241 -0.008887166 0.20239747 -0.052000746 0.035566345
0.03511957 -0.05099806 -0.08509204 -0.06362176 0.18174748 0.07350223 0.05475687 0.001355817
-0.088171355 0.07983355 0.000543155 0.019998442 0.053908 0.07080288 -0.06042652 -0.102608174
-0.08013624 -0.0475891 -0.007441199 0.100470625 -0.0575944 0.03170951 -0.03509383 0.07825765
0.2301917 0.15804099 -0.098703064 -0.008522642 0.046632376 0.020566737 -0.07189121 0.01732776
-0.06544417 -0.03238896 -0.06935563 0.10696359 -0.014297752 0.06934822 -0.027521154 0.22379172
-0.010912687 -0.013710637 -0.0016133359 -0.034223434 0.08877256 0.032052685 0.01992872 -0.039525256
-0.014608393 -0.00032754993 -0.06699706 0.04393682 0.20581794 0.09448921 0.10358704 0.017393196
-0.07045173 0.2378513 0.06260295 -0.036980662 0.10423955 0.11776087 0.079432316 0.05620985
-0.1117817 -0.07524137 0.07841214 0.09157104 -0.03489516 -0.10029063 -0.016957857 0.045854297
00000000: 970c 1e3d 8a4c 73bd b06e 9f3d 6123 aa3d
00000010: fc60 97ba fb88 36bd cb87 c93d 4cd1 fcbb
00000020: 0c2d 483d 8356 153d 15e5 2a3e 93a0 c93d
00000030: 1cb8 5d3d f6f5 323e 18b9 263e ec12 88bc
00000040: 9d4d 573d 375c 303d bf0b 5e3d 3c93 a4bb
00000050: 8ebc 9e3d cc57 d3bc 61c0 bbbc a820 cc3d
00000060: c22a 0d3c 7da2 f83d dc4d d7bc b4bb a23d
00000070: 3538 f23d 5cec 603d c087 133d 2346 b73c
00000080: 8f0a 4f3d d374 e43c 5e46 dc3d eaca 713d
00000090: a389 d0bc f469 b83b b138 9b3d 4268 333e
000000a0: 2e21 383e effb 1e3a fea1 f3bb d334 d43d
000000b0: 7957 e2bd b2f6 963d 1511 9b3d 1ab1 cdba
000000c0: fd22 a2bd 819e a13d 2004 7b3c 202d 183d
000000d0: 7a9b 11bc 4841 4f3e bcfe 54bd 04ae 113d
000000e0: 8ad9 0f3d 57e3 50bd bc44 aebd 204c 82bd
000000f0: 031c 3a3e 5688 963d bd48 603d abb5 b13a
00000100: 2f93 b4bd c67f a33d 8462 0e3a c6d3 a33c
00000110: a3ce 5c3d 1a01 913d cc81 77bd 3c24 d2bd
00000120: 781e a4bd caec 42bd 4dd5 f3bb 8bc3 cd3d
00000130: 1be8 6bbd d5e1 013d 8cbe 0fbd 8c45 a03d
00000140: 5fb7 6b3e 7fd5 213e d524 cabd 8da2 0bbc
00000150: 9701 3f3d 937b a83c b33b 93bd f2f2 8d3c
00000160: 9807 86bd 49aa 04bd 530a 8ebd ba0f db3d
00000170: 1e41 6abc 7106 8e3d 0b74 e1bc a829 653e
00000180: 20cb 32bc 94a2 60bc 9276 d3ba df2d 0cbd
00000190: 63ce b53d ad49 033d 8e41 a33c 3ce5 21bd
000001a0: 0b58 6fbc 02bb abb9 c135 89bd 18f7 333d
000001b0: f0c1 523e 8f83 c13d 7125 d43d 2d7c 8e3c
000001c0: ff48 90bd 4b8f 733e fa35 803d 0979 17bd
000001d0: 8c7b d53d 9c2c f13d 69ad a23d 4d3c 663d
000001e0: ceed e4bd 2618 9abd 8b96 a03d 9989 bb3d
000001f0: 3aee 0ebd 2c65 cdbd 34eb 8abc b7d1 3b3d

layer3.weight f4 [8, 128]
0.04378071 0.10543536 -0.029288258 0.006705796 0.081574805 0.007985643 -0.049911715 -0.03532539
-0.028978644 0.073258966 0.14180818 0.016793031 -0.008437489 0.103883095 0.09826294 -0.013441791
-0.10713495 0.011959071 0.023191424 0.096949115 -0.04219683 0.001559157 -0.002031917 0.09599448
0.07269613 0.04661745 -0.08375867 -0.058125984 0.24952005 -0.036326453 0.019985016 -0.04549897
0.06900507 -0.050081316 0.06706861 0.11548677 0.004887617 0.07255657 0.11819116 0.13413817
0.2540579 -0.09413244 -0.100726515 0.07970943 -0.15507512 -0.10555041 0.036679108 -0.06181176
-0.079332605 -0.034132805 -0.048050966 0.054815643 0.044076335 0.11277272 -0.035838425 -0.026681876
0.15708894 0.054444376 0.027927333 0.050074346 0.229863 0.21305987 0.05731652 0.03714182
-0.06088552 0.022419317 -0.037723057 0.11227206 -0.12112527 -0.06328556 -0.05375957 -0.10032478
0.02571046 0.12070832 -0.008256764 -0.01762795 0.07132508 0.15496393 0.080581106 -0.013316619
0.16557832 0.09603767 -0.08601817 -0.07902165 -0.06229007 -0.09131717 0.054054648 0.08732523
-0.06218965 0.0069369464 -0.057397068 0.1272673 -0.08334682 0.042112913 -0.042303637 0.20110187
0.0014487006 0.027887546 -0.04015514 0.09004968 0.2103099 0.084177546 0.0014764508 -0.004926275
-0.09285059 -0.07764063 -0.14677231 0.0035043969 0.2433534 0.20075147 0.09439364 -0.050022684
-0.008011313 0.2187105 0.0640332 0.07858419 0.10882138 0.094986945 0.022820469 -0.047766995
0.023098959 -0.045514934 -0.08358069 0.07343068 0.041061644 -0.016839555 0.001936979 -0.059370395
0.0031434358 -0.029869528 0.064821996 0.09606678 0.021017808 0.039244447 -0.010262692 -0.014127438
-0.040970966 0.087972015 0.21741965 0.022089344 0.15301754 0.25758365 0.24513273 0.005816079
-0.0047408906 -0.08408515 -0.044598248 -0.06908376 -0.042262346 -0.0064111394 -0.065433405 0.06793004
-0.04898825 0.042479202 -0.06613726 -0.052331988 -0.010368937 0.09497624 -0.011575707 0.0469793
0.09912087 -0.06268837 -0.061022 0.08082002 -0.012610205 0.08484865 0.09335114 0.22559017
0.27985308 -0.00031897728 -0.005452947 0.05294985 0.014247594 -0.14686106 0.06794824 0.083708845
-0.028416274 0.0264938 0.008463512 0.08679341 0.08304814 0.15758482 0.02202016 0.00522762
-0.030475121 -0.010828171 0.008587025 -0.07636413 0.20588054 0.19469084 -0.07960292 0.030612377
-0.07789704 0.07336137 -0.042910993 0.01824286 -0.13518171 -0.037316337 -0.031923037 -0.0400025
0.020851782 0.021272397 -0.052794773 -0.03597358 -0.034003947 0.044503454 0.07166185 -0.08240089
0.22817782 0.08170275 -0.01973348 -0.05491967 -0.020926267 -0.039204724 -0.056158863 0.023301633
-0.06496929 0.021444922 0.012797835 0.2122827 0.054863174 -0.0048524123 -0.02682811 0.24559505
-0.0068049007 -0.05520747 0.015114866 0.087334014 0.1262828 -0.061162565 -0.07909098 -0.08025846
-0.037977 0.052572493 -0.05006259 -0.018447816 0.14965369 -0.009165329 -0.04292748 -0.071312256
-0.05844749 0.25809732 -0.037347514 -0.015477581 0.029394794 -0.044987388 0.02882681 0.10829128
-0.08830766 0.048222132 -0.11639523 0.035573382 -0.054165345 -0.0144305285 0.038312927 -0.07915899
00000000: 6753 333d 7eee d73d eeed efbc 4bbc db3b
00000010: b110 a73d 37d6 023c 3a70 4cbd 5bb1 10bd
00000020: 9f64 edbc cc08 963d 2a36 113e 8a91 893c
00000030: 653d 0abc a9c0 d43d 153e c93d f53a 5cbc
00000040: 9269 dbbd fbef 433c f1fb bd3c 428d c63d
00000050: 95d6 2cbd a15c cc3a e929 05bb c198 c43d
00000060: b5e1 943d f0f1 3e3d aa89 abbd 8315 6ebd
00000070: 2f82 7f3e 0ccb 14bd 9eb7 a33c 215d 3abd
00000080: 8852 8d3d 1122 4dbd 445b 893d 5484 ec3d
00000090: 4e28 a03b 8a98 943d 350e f23d 845b 093e
000000a0: e113 823e 82c8 c0bd b449 cebd b33e a33d
000000b0: 03cc 1ebe d02a d8bd d53c 163d 542e 7dbd
000000c0: 2279 a2bd d7ce 0bbd 17d1 44bd 5e86 603d
000000d0: 6389 343d 62f5 e63d 50cb 12bd f393 dabc
000000e0: ecdb 203e 1101 5f3d ddc7 e43c c21a 4d3d
000000f0: 3561 6b3e 5e2c 5a3e bac4 6a3d 0522 183d
00000100: 1863 79bd b7a8 b73c 7e83 1abd e5ee e53d
00000110: 8710 f8bd dc9b 81bd ff32 5cbd 1477 cdbd
00000120: be9e d23c ec35 f73d 6147 07bc 7e68 90bc
00000130: e212 923d ddae 1e3e b507 a53d f32d 5abc
00000140: 5d8d 293e 66af c43d 4b2a b0bd 1ad6 a1bd
00000150: df23 7fbd 7f04 bbbd 6868 5d3d 92d7 b23d
00000160: 93ba 7ebd 534f e33b 3019 6bbd 5c52 023e
00000170: bdb1 aabd 977e 2c3d 9446 2dbd a6ed 4d3e
00000180: 53e2 bd3a 6c74 e43c b779 24bd f76b b83d
00000190: 7a5b 573e 4765 ac3d 7885 c13a 976c a1bb
000001a0: 7328 bebd 0d02 9fbd 7b4b 16be 06aa 653b
000001b0: a231 793e cb91 4d3e 7451 c13d 96e4 4cbd
000001c0: e241 03bc a5f5 5f3e d723 833d bff0 a03d
000001d0: bedd de3d 8488 c23d fef1 ba3c 53a7 43bd
000001e0: 073a bd3c de6d 3abd 5a2c abbd d362 963d
000001f0: 4130 283d 1bf3 89bc 3be2 fd3a 5f2e 73bd
00000200: 1a02 4e3b f1b0 f4bc 65c1 843d a9be c43d
00000210: 8a2d ac3c c9be 203d da24 28bc c576 67bc
00000220: 2cd1 27bd ac2a b43d 42a3 5e3e b6f4 b43c
00000230: a1b0 1c3e 01e2 833e 1304 7b3e cf94 be3b
00000240: 7959 9bbb d634 acbd a7ac 36bd c97b 8dbd
00000250: 481b 2dbd 8914 d2bb f301 86bd e81e 8b3d
00000260: e7a7 48bd acfe 2d3d f972 87bd 115a 56bd
00000270: 79e2 29bc e782 c23d 09a8 3dbc 5e6d 403d
00000280: e2ff ca3d c362 80bd 34f2 79bd f784 a53d
00000290: 099b 4ebc 21c5 ad3d e22e bf3d 1c01 673e
000002a0: e748 8f3e 683c a7b9 a3ae b2bb f1e1 583d
000002b0: be6e 693c bf62 16be 7228 8b3d 8b6f ab3d
000002c0: 3fc9 e8bc 8709 d93c 8baa 0a3c bec0 b13d
000002d0: 2515 aa3d ea5d 213e 9f63 b43c 744c ab3b
000002e0: f6a6 f9bc a468 31bc 98b0 0c3c cc64 9cbd
000002f0: 59d2 523e 095d 473e db06 a3bd cfc6 fa3c
00000300: 7c88 9fbd 7c3e 963d 70c3 2fbd 0d72 953c
00000310: 136d 0abe 04d9 18bd bbc1 02bd a9d9 23bd
00000320: 5bd1 aa3c 7343 ae3c 553f 58bd 0859 13bd
00000330: b947 0bbd 4149 363d 73c3 923d ccc1 a8bd
00000340: 72a7 693e c553 a73d 1ba8 a1bc 73f3 60bd
00000350: 906d abbc 2295 20bd d606 66bd 11e3 be3c
00000360: 9e0e 85bd 43ad af3c 03ae 513c a360 593e
00000370: 35b8 603d fc00 9fbb a0c6 dbbc 457d 7b3e
00000380: a5fb debb 3a21 62bd 58a4 773c 2ddc b23d
00000390: 4750 013e 9985 7abd 74fa a1bd 8c5e a4bd
000003a0: c58d 1bbd 4156 573d 6e0e 4dbd e01f 97bc
000003b0: d13e 193e 2d2a 16bc bad4 2fbd 290c 92bd
000003c0: a366 6fbd 5525 843e b5f9 18bd ae95 7dbc
000003d0: 5acd f03c b244 38bd 3426 ec3c d2c7 dd3d
000003e0: a5da b4bd 9284 453d 9f60 eebd 65b5 113d
000003f0: 7bdc 5dbd 066e 6cbc 04ee 1c3d 1c1e a2bd

layer3.bias f4 [8]
-0.005589342 0.06495493 -0.0107318945 0.020587923 0.008551992 0.041043047 0.023014132 0.12420943
00000000: cd26 b7bb 1707 853d d4d4 2fbc 01a8 a83c
00000010: a71d 0c3c c11c 283d 2288 bc3c 8361 fe3d
